…
\n- 从嵌套块收集参数\n\n\n```python\ndef block1():\n    return nn.Sequential(\n        nn.Linear(4,8),nn.ReLU(),\n        nn.Linear(8,4), nn.ReLU()\n    )\ndef block2():\n    net = nn.Sequential()\n    for i in range(4):\n        net.add_module(f'block{i}',block1()) #增加一个模块\n    return net\n\nrgnet = nn.Sequential(block2(), nn.Linear(4,1))\nprint(rgnet(X))\n# 输出网络\nprint(rgnet)\n# 访问第一个主要的模块中第二个子模块第一层的偏置\nprint(rgnet[0][1][0].bias.data)\n```\n\n    tensor([[-0.2233],\n            [-0.2233]], grad_fn=<AddmmBackward0>)\n    Sequential(\n      (0): Sequential(\n        (block0): Sequential(\n          (0): Linear(in_features=4, out_features=8, bias=True)\n          (1): ReLU()\n          (2): Linear(in_features=8, out_features=4, bias=True)\n          (3): ReLU()\n        )\n        (block1): Sequential(\n          (0): Linear(in_features=4, out_features=8, bias=True)\n          (1): ReLU()\n          (2): Linear(in_features=8, out_features=4, bias=True)\n          (3): ReLU()\n        )\n        (block2): Sequential(\n          (0): Linear(in_features=4, out_features=8, bias=True)\n          (1): ReLU()\n          (2): Linear(in_features=8, out_features=4, bias=True)\n          (3): ReLU()\n        )\n        (block3): Sequential(\n          (0): Linear(in_features=4, out_features=8, bias=True)\n          (1): ReLU()\n          (2): Linear(in_features=8, out_features=4, bias=True)\n          (3): ReLU()\n        )\n      )\n      (1): Linear(in_features=4, out_features=1, bias=True)\n    )\n    tensor([ 0.4794,  0.4585,  0.0098,  0.1719, -0.2016, -0.3174, -0.4974,  0.4953])\n    \n\n## 2.2 参数初始化\n- 默认情况下，pytorch会根据一个均匀地初始化权重和偏置\n- pytorch的nn.init模块提供了多种初始化方法\n### 2.2.1 内置初始化\n- 权重初始化标准差为0.01的高斯随机变量，偏置设置为0\n\n\n\n```python\ndef init_normal(m):\n    if type(m) == nn.Linear:\n        nn.init.normal_(m.weight, mean = 0, std=0.01)\n       
…
lass=\"line\"><span class=\"comment\"># 输出网络</span></span><br><span class=\"line\"><span class=\"built_in\">print</span>(rgnet)</span><br><span class=\"line\"><span class=\"comment\"># 访问第一个主要的模块中第二个子模块第一层的偏置</span></span><br><span class=\"line\"><span class=\"built_in\">print</span>(rgnet[<span class=\"number\">0</span>][<span class=\"number\">1</span>][<span class=\"number\">0</span>].bias.data)</span><br></pre></td></tr></table></figure>\n\n<pre><code>tensor([[-0.2233],\n        [-0.2233]], grad_fn=&lt;AddmmBackward0&gt;)\nSequential(\n  (0): Sequential(\n    (block0): Sequential(\n      (0): Linear(in_features=4, out_features=8, bias=True)\n      (1): ReLU()\n      (2): Linear(in_features=8, out_features=4, bias=True)\n      (3): ReLU()\n    )\n    (block1): Sequential(\n      (0): Linear(in_features=4, out_features=8, bias=True)\n      (1): ReLU()\n      (2): Linear(in_features=8, out_features=4, bias=True)\n      (3): ReLU()\n    )\n    (block2): Sequential(\n      (0): Linear(in_features=4, out_features=8, bias=True)\n      (1): ReLU()\n      (2): Linear(in_features=8, out_features=4, bias=True)\n      (3): ReLU()\n    )\n    (block3): Sequential(\n      (0): Linear(in_features=4, out_features=8, bias=True)\n      (1): ReLU()\n      (2): Linear(in_features=8, out_features=4, bias=True)\n      (3): ReLU()\n    )\n  )\n  (1): Linear(in_features=4, out_features=1, bias=True)\n)\ntensor([ 0.4794,  0.4585,  0.0098,  0.1719, -0.2016, -0.3174, -0.4974,  0.4953])\n</code></pre>\n<h2 id=\"2-2-参数初始化\"><a href=\"#2-2-参数初始化\" class=\"headerlink\" title=\"2.2 参数初始化\"></a>2.2 参数初始化</h2><ul>\n<li>默认情况下，pytorch会根据一个均匀地初始化权重和偏置</li>\n<li>pytorch的nn.init模块提供了多种初始化方法</li>\n</ul>\n<h3 id=\"2-2-1-内置初始化\"><a href=\"#2-2-1-内置初始化\" class=\"headerl
…
